…
odel_22"
______________________________________________________________________________________________________________
 Layer (type)                       Output Shape            Param #      Connected to                         
==============================================================================================================
 input (InputLayer)                 [(None, 32, 128, 3)]    0            []                                   
                                                                                                              
 lambda_22 (Lambda)                 (None, 32, 128, 3)      0            ['input[0][0]']                      
                                                                                                              
 conv2d_506 (Conv2D)                (None, 32, 128, 16)     448          ['lambda_22[0][0]']                  
                                                                                                              
 batch_normalization_396 (BatchNorm  (None, 32, 128, 16)    64           ['conv2d_506[0][0]']                 
 alization)                                                                                                   
                                                                                                              
 leaky_re_lu_396 (LeakyReLU)        (None, 32, 128, 16)     0            ['batch_normalization_396[0][0]']    
                                                                                                              
 conv2d_507 (Conv2D)                (None, 32, 128, 16)     2320         ['leaky_re_lu_396[0][0]']            
                                                                                                              
 batch_normalization_397 (BatchNorm  (None, 32, 128, 16)    64           ['conv2d_507[0][0]']                 
 alization)                                                                                                   
                                                                                                              
 conv2d_508 (Conv2D)                (None, 32, 128, 16)     64           ['lambda_22[0][0]']                  
                                                                                                              
 add_198 (Add)                      (None, 32, 128, 16)     0            ['batch_normalization_397[0][0]',    
                                                                          'conv2d_508[0][0]']                 
                                                                                                              
 leaky_re_lu_397 (LeakyReLU)        (None, 32, 128, 16)     0            ['add_198[0][0]']                    
                                                                                                              
 dropout_220 (Dropout)              (None, 32, 128, 16)     0            ['leaky_re_lu_397[0][0]']            
                                                                                                              
 conv2d_509 (Conv2D)                (None, 16, 64, 16)      2320         ['dropout_220[0][0]']                
                                                                                                              
 batch_normalization_398 (BatchNorm  (None, 16, 64, 16)     64           ['conv2d_509[0][0]']                 
 alization)                                                                                                   
                                                                                                              
 leaky_re_lu_398 (LeakyReLU)        (None, 16, 64, 16)      0            ['batch_normalization_398[0][0]']    
                                                                                                              
 conv2d_510 (Conv2D)                (None, 16, 64, 16)      2320         ['leaky_re_lu_398[0][0]']            
                                                                                                              
 batch_normalization_399 (BatchNorm  (None, 16, 64, 16)     64           ['conv2d_510[0][0]']                 
 alization)                                                                                                   
                                                                                                              
 conv2d_511 (Conv2D)                (None, 16, 64, 16)      272          ['dropout_220[0][0]']                
                                                                                                              
 add_199 (Add)                      (None, 16, 64, 16)      0            ['batch_normalization_399[0][0]',    
                                                                          'conv2d_511[0][0]']                 
                                                                                                              
 leaky_re_lu_399 (LeakyReLU)        (None, 16, 64, 16)      0            ['add_199[0][0]']                    
                                                                                                              
 dropout_221 (Dropout)              (None, 16, 64, 16)      0            ['leaky_re_lu_399[0][0]']            
                                                                                                              
 conv2d_512 (Conv2D)                (None, 16, 64, 16)      2320         ['dropout_221[0][0]']                
                                                                                                              
 batch_normalization_400 (BatchNorm  (None, 16, 64, 16)     64           ['conv2d_512[0][0]']                 
 alization)                                                                                                   
                                                                                                              
 leaky_re_lu_400 (LeakyReLU)        (None, 16, 64, 16)      0            ['batch_normalization_400[0][0]']    
                                                                                                              
 conv2d_513 (Conv2D)                (None, 16, 64, 16)      2320         ['leaky_re_lu_400[0][0]']            
                                                                                                              
 batch_normalization_401 (BatchNorm  (None, 16, 64, 16)     64           ['conv2d_513[0][0]']                 
 alization)                                                                                                   
                                                                                                              
 add_200 (Add)                      (None, 16, 64, 16)      0            ['batch_normalization_401[0][0]',    
                                                                          'dropout_221[0][0]']                
                                                                                                              
 leaky_re_lu_401 (LeakyReLU)        (None, 16, 64, 16)      0            ['add_200[0][0]']                    
                                                                                                              
 dropout_222 (Dropout)              (None, 16, 64, 16)      0            ['leaky_re_lu_401[0][0]']            
                                                                                                              
 conv2d_514 (Conv2D)                (None, 8, 32, 32)       4640         ['dropout_222[0][0]']                
                                                                                                              
 batch_normalization_402 (BatchNorm  (None, 8, 32, 32)      128          ['conv2d_514[0][0]']                 
 alization)                                                                                                   
                                                                                                              
 leaky_re_lu_402 (LeakyReLU)        (None, 8, 32, 32)       0            ['batch_normalization_402[0][0]']    
                                                                                                              
 conv2d_515 (Conv2D)                (None, 8, 32, 32)       9248         ['leaky_re_lu_402[0][0]']            
                                                                                                              
 batch_normalization_403 (BatchNorm  (None, 8, 32, 32)      128          ['conv2d_515[0][0]']                 
 alization)                                                                                                   
                                                                                                              
 conv2d_516 (Conv2D)                (None, 8, 32, 32)       544          ['dropout_222[0][0]']                
                                                                                                              
 add_201 (Add)                      (None, 8, 32, 32)       0            ['batch_normalization_403[0][0]',    
                                                                          'conv2d_516[0][0]']                 
                                                                                                              
 leaky_re_lu_403 (LeakyReLU)        (None, 8, 32, 32)       0            ['add_201[0][0]']                    
                                                                                                              
 dropout_223 (Dropout)              (None, 8, 32, 32)       0            ['leaky_re_lu_403[0][0]']            
                                                                                                              
 conv2d_517 (Conv2D)                (None, 8, 32, 32)       9248         ['dropout_223[0][0]']                
                                                                                                              
 batch_normalization_404 (BatchNorm  (None, 8, 32, 32)      128          ['conv2d_517[0][0]']                 
 alization)                                                                                                   
                                                                                                              
 leaky_re_lu_404 (LeakyReLU)        (None, 8, 32, 32)       0            ['batch_normalization_404[0][0]']    
                                                                                                              
 conv2d_518 (Conv2D)                (None, 8, 32, 32)       9248         ['leaky_re_lu_404[0][0]']            
                                                                                                              
 batch_normalization_405 (BatchNorm  (None, 8, 32, 32)      128          ['conv2d_518[0][0]']                 
 alization)                                                                                                   
                                                                                                              
 add_202 (Add)                      (None, 8, 32, 32)       0            ['batch_normalization_405[0][0]',    
                                                                          'dropout_223[0][0]']                
                                                                                                              
 leaky_re_lu_405 (LeakyReLU)        (None, 8, 32, 32)       0            ['add_202[0][0]']                    
                                                                                                              
 dropout_224 (Dropout)              (None, 8, 32, 32)       0            ['leaky_re_lu_405[0][0]']            
                                                                                                              
 conv2d_519 (Conv2D)                (None, 4, 16, 64)       18496        ['dropout_224[0][0]']                
                                                                                                              
 batch_normalization_406 (BatchNorm  (None, 4, 16, 64)      256          ['conv2d_519[0][0]']                 
 alization)                                                                                                   
                                                                                                              
 leaky_re_lu_406 (LeakyReLU)        (None, 4, 16, 64)       0            ['batch_normalization_406[0][0]']    
                                                                                                              
 conv2d_520 (Conv2D)                (None, 4, 16, 64)       36928        ['leaky_re_lu_406[0][0]']            
                                                                                                              
 batch_normalization_407 (BatchNorm  (None, 4, 16, 64)      256          ['conv2d_520[0][0]']                 
 alization)                                                                                                   
                                                                                                              
 conv2d_521 (Conv2D)                (None, 4, 16, 64)       2112         ['dropout_224[0][0]']                
                                                                                                              
 add_203 (Add)                      (None, 4, 16, 64)       0            ['batch_normalization_407[0][0]',    
                                                                          'conv2d_521[0][0]']                 
                                                                                                              
 leaky_re_lu_407 (LeakyReLU)        (None, 4, 16, 64)       0            ['add_203[0][0]']                    
                                                                                                              
 dropout_225 (Dropout)              (None, 4, 16, 64)       0            ['leaky_re_lu_407[0][0]']            
                                                                                                              
 conv2d_522 (Conv2D)                (None, 4, 16, 64)       36928        ['dropout_225[0][0]']                
                                                                                                              
 batch_normalization_408 (BatchNorm  (None, 4, 16, 64)      256          ['conv2d_522[0][0]']                 
 alization)                                                                                                   
                                                                                                              
 leaky_re_lu_408 (LeakyReLU)        (None, 4, 16, 64)       0            ['batch_normalization_408[0][0]']    
                                                                                                              
 conv2d_523 (Conv2D)                (None, 4, 16, 64)       36928        ['leaky_re_lu_408[0][0]']            
                                                                                                              
 batch_normalization_409 (BatchNorm  (None, 4, 16, 64)      256          ['conv2d_523[0][0]']                 
 alization)                                                                                                   
                                                                                                              
 conv2d_524 (Conv2D)                (None, 4, 16, 64)       4160         ['dropout_225[0][0]']                
                                                                                                              
 add_204 (Add)                      (None, 4, 16, 64)       0            ['batch_normalization_409[0][0]',    
                                                                          'conv2d_524[0][0]']                 
                                                                                                              
 leaky_re_lu_409 (LeakyReLU)        (None, 4, 16, 64)       0            ['add_204[0][0]']                    
                                                                                                              
 dropout_226 (Dropout)              (None, 4, 16, 64)       0            ['leaky_re_lu_409[0][0]']            
                                                                                                              
 conv2d_525 (Conv2D)                (None, 4, 16, 64)       36928        ['dropout_226[0][0]']                
                                                                                                              
 batch_normalization_410 (BatchNorm  (None, 4, 16, 64)      256          ['conv2d_525[0][0]']                 
 alization)                                                                                                   
                                                                                                              
 leaky_re_lu_410 (LeakyReLU)        (None, 4, 16, 64)       0            ['batch_normalization_410[0][0]']    
                                                                                                              
 conv2d_526 (Conv2D)                (None, 4, 16, 64)       36928        ['leaky_re_lu_410[0][0]']            
                                                                                                              
 batch_normalization_411 (BatchNorm  (None, 4, 16, 64)      256          ['conv2d_526[0][0]']                 
 alization)                                                                                                   
                                                                                                              
 add_205 (Add)                      (None, 4, 16, 64)       0            ['batch_normalization_411[0][0]',    
                                                                          'dropout_226[0][0]']                
                                                                                                              
 leaky_re_lu_411 (LeakyReLU)        (None, 4, 16, 64)       0            ['add_205[0][0]']                    
                                                                                                              
 dropout_227 (Dropout)              (None, 4, 16, 64)       0            ['leaky_re_lu_411[0][0]']            
                                                                                                              
 conv2d_527 (Conv2D)                (None, 4, 16, 64)       36928        ['dropout_227[0][0]']                
                                                                                                              
 batch_normalization_412 (BatchNorm  (None, 4, 16, 64)      256          ['conv2d_527[0][0]']                 
 alization)                                                                                                   
                                                                                                              
 leaky_re_lu_412 (LeakyReLU)        (None, 4, 16, 64)       0            ['batch_normalization_412[0][0]']    
                                                                                                              
 conv2d_528 (Conv2D)                (None, 4, 16, 64)       36928        ['leaky_re_lu_412[0][0]']            
                                                                                                              
 batch_normalization_413 (BatchNorm  (None, 4, 16, 64)      256          ['conv2d_528[0][0]']                 
 alization)                                                                                                   
                                                                                                              
 add_206 (Add)                      (None, 4, 16, 64)       0            ['batch_normalization_413[0][0]',    
                                                                          'dropout_227[0][0]']                
                                                                                                              
 leaky_re_lu_413 (LeakyReLU)        (None, 4, 16, 64)       0            ['add_206[0][0]']                    
                                                                                                              
 dropout_228 (Dropout)              (None, 4, 16, 64)       0            ['leaky_re_lu_413[0][0]']            
                                                                                                              
 reshape_22 (Reshape)               (None, 64, 64)          0            ['dropout_228[0][0]']                
                                                                                                              
 bidirectional_22 (Bidirectional)   (None, 64, 256)         197632       ['reshape_22[0][0]']                 
                                                                                                              
 dropout_229 (Dropout)              (None, 64, 256)         0            ['bidirectional_22[0][0]']           
                                                                                                              
 output (Dense)                     (None, 64, 79)          20303        ['dropout_229[0][0]']                
                                                                                                              
==============================================================================================================
Total params: 549,455
Trainable params: 547,983
Non-trainable params: 1,472
______________________________________________________________________________________________________________
…
